examples/pytorch/lenet.pth (torch, 249775 bytes, 10 tensors)

conv1.weight f4 [6, 1, 5, 5]
0.10090033 -0.19660316 -0.081811264 0.10115459 -0.15365879 -0.21626604 -0.2418951 -0.38158092
-0.02500419 -0.28514645 -0.15839498 -0.030028675 -0.4419649 -0.3258962 -0.27327073 -0.115845434
-0.29561573 -0.35276666 -0.12573239 0.12632564 0.12854686 -0.24555205 -0.020854603 -0.13605964
0.05748591 -0.0051638605 0.046929315 -0.1385017 0.10594576 0.08558264 0.024315376 0.13950394
-0.01004933 0.2977558 0.16067778 0.2794004 0.15496467 0.28592628 0.2568125 0.031080581
0.07852055 0.066432044 0.21751995 0.30275363 0.14752677 0.10132036 0.031353407 -0.13134672
0.16198154 0.074288234 -0.039299037 -0.2608931 -0.18253854 -0.34193897 -0.17479078 -0.18370171
-0.21097107 -0.1660234 -0.1806752 0.04601502 0.039178304 0.16434427 0.08706883 0.0046381713
0.036661163 0.29008436 0.18738683 0.28258413 0.21098709 0.13628428 0.2492504 0.3334715
0.26936835 0.016556783 0.2513222 0.12273837 0.018761309 0.22683722 0.38793448 0.23726726
0.084172085 0.052972186 -0.13414204 0.047161948 0.29779017 -0.014544725 -0.45002556 -0.21539114
-0.18187474 0.1918302 -0.4660685 -0.43554363 -0.34423947 -0.045633998 -0.08133301 -0.36405048
-0.31714484 0.07863592 0.21696764 0.29943743 -0.16975793 -0.24540074 -0.25115097 -0.37031594
-0.11147386 -0.120901816 -0.34717843 -0.26595792 -0.31686243 -0.13789241 -0.10273505 0.08252373
-0.082815595 0.045297425 -0.16171095 0.27250972 0.0067434027 0.23251343 0.22794072 -0.020529363
0.30388138 0.25455722 0.039686408 0.053286992 0.18307383 0.19169086 -0.07159509 -0.2817895
-0.2884019 -0.1384693 -0.006244622 -0.31560665 -0.26046547 -0.3722591 -0.16133675 -0.0044894475
-0.114989005 -0.2611376 0.020504273 0.0055808113 0.21817939 -0.16530474 -0.16250363 0.15820208
0.26631442 -0.06227007 0.10912792 -0.026651079 0.18534356 0.49392334
00000000: d5a4 ce3d 5752 49be aa8c a7bd 232a cf3d
00000010: bb58 1dbe d874 5dbe 59b3 77be 935e c3be
00000020: 96d5 ccbc b7fe 91be 4b32 22be b2fe f5bc
00000030: 3949 e2be dedb a6be 24ea 8bbe 5f40 edbd
00000040: f25a 97be d59d b4be febf 00be 825b 013e
00000050: caa1 033e ff71 7bbe 46d7 aabc 3853 0bbe
00000060: 5876 6b3d 9a35 a9bb f438 403d 64d3 0dbe
00000070: 17fa d83d f345 af3d 0a31 c73c 1fda 0e3e
00000080: f2a5 24bc 7373 983e b788 243e 920d 8f3e
00000090: 0faf 1e3e ee64 923e ee7c 833e b49c fe3c
000000a0: 62cf a03d 860d 883d 8dbd 5e3e 8602 9b3e
000000b0: 4211 173e 0d81 cf3d 6e6c 003d c17f 06be
000000c0: 7dde 253e 6e24 983d 07f8 20bd c893 85be
000000d0: 62eb 3abe a012 afbe 5bfc 32be 4d1c 3cbe
000000e0: cd08 58be 0a02 2abe eb02 39be 3f7a 3c3d
000000f0: 6e79 203d dd49 283e 2551 b23d cdfb 973b
00000100: 042a 163d f085 943e 55e2 3f3e deae 903e
00000110: 000d 583e 1b8e 0b3e 7f3b 7f3e c7bc aa3e
00000120: a6ea 893e 17a2 873c 4ead 803e 415e fb3d
00000130: 51b1 993c 0448 683e 599f c63e 30f6 723e
00000140: 6a62 ac3d 5df9 583d 885c 09be e32c 413d
00000150: f477 983e 004d 6ebc c069 e6be 7f8f 5cbe
00000160: 5f3d 3abe 236f 443e 88a0 eebe 93ff debe
00000170: 2840 b0be b7ea 3abd ec91 a6bd d364 babe
00000180: cf60 a2be df0b a13d c42c 5e3e dd4f 993e
00000190: 06d5 2dbe 554a 7bbe dc96 80be 0d9a bdbe
000001a0: 684c e4bd 5f9b f7bd 5fc1 b1be a32b 88be
000001b0: cb3b a2be ab33 0dbe c166 d2bd 3402 a93d
000001c0: 399b a9bd cb89 393d 8e97 25be 6586 8b3e
000001d0: c3f7 dc3b 0018 6e3e 4b69 693e 322d a8bc
000001e0: 5796 9b3e 5355 823e 378e 223d 7643 5a3d
000001f0: b577 3b3e 9c4a 443e 72a0 92bd b746 90be
00000200: 6aa9 93be e5ca 0dbe b09f ccbb 3297 a1be
00000210: bb5b 85be bf98 bebe 7635 25be 371c 93bb
00000220: 5b7f ebbd d4b3 85be 94f8 a73c 3ddf b63b
00000230: 6b6a 5f3e a545 29be 5a67 26be baff 213e
00000240: 5d5a 883e e70e 7fbd 757e df3d 5d53 dabc
00000250: b4ca 3d3e 85e3 fc3e

conv1.bias f4 [6]
0.094830304 -0.053419482 0.1041789 0.11955628 0.15841213 0.056866337
00000000: 6436 c23d 63ce 5abd bf5b d53d ecd9 f43d
00000010: ca36 223e adec 683d

conv2.weight f4 [16, 6, 5, 5]
0.009342425 -0.13180077 -0.0749614 -0.120167434 -0.12015416 0.009042307 0.06894828 -0.0105365515
-0.12913512 -0.13149683 0.015039114 0.023335058 0.13383381 -0.07691083 -0.13755864 0.04878977
0.04473618 0.05924138 0.016726965 0.009762374 0.01318176 0.08909882 0.10367492 -0.043308597
-0.08912803 -0.075523354 0.07868364 -0.011474005 0.14228146 0.00027850101 -0.10557251 0.03459164
0.00061189686 0.033581305 0.021333834 -0.10024312 -0.0015449579 -0.09873702 0.045020968 0.055271972
0.07521167 -0.16354768 -0.14407752 0.038132355 0.08978712 -0.02539155 -0.09214802 -0.028946433
-0.10842688 -0.016549049 -0.115562715 -0.11960915 -0.03595585 0.028078929 0.016542466 -0.07693944
-0.21765834 -0.18316637 -0.01455587 0.21068056 0.0073828385 -0.17789118 -0.1497768 -0.052796904
0.12224471 -0.019318782 0.02778234 -0.1433117 -0.10800324 0.09615932 -0.10278058 -0.14515395
-0.1030359 -0.044004977 0.026588792 0.11138742 0.0024425485 -0.08222977 -0.015746037 -0.16513747
0.046734482 0.03291245 0.095276676 0.059223454 -0.20271361 0.042760357 0.03753978 0.21177867
0.18524192 -0.035564914 -0.16616553 -0.10868723 0.25298652 0.18813935 -0.08132577 -0.1790134
0.0025426503 0.11057689 0.049680762 -0.0009916248 0.02277656 0.02302506 0.011391464 -0.06726398
-0.07188409 0.035882834 -0.15322208 -0.13314934 -0.13609439 -0.12658183 0.21514556 0.13741301
-0.06689163 -0.21404172 -0.1551812 0.1878451 0.23202264 0.071660586 -0.1333745 -0.32928637
-0.0786129 0.14273605 0.08657882 -0.020302203 -0.2210606 0.101319596 -0.07514451 -0.03404197
-0.13620242 -0.17127047 -0.06756869 -0.08253233 -0.029969223 -0.03962405 -0.1289622 0.10547329
0.024701968 0.02457761 -0.1127002 -0.15965346 -0.040504742 0.10621309 0.14221305 -0.056140967
-0.045452856 -0.005123047 0.09413514 0.12466675 0.013987907 -0.03848433 -0.10160292 0.059663597
0.014213972 0.086440325 0.16797923 0.016853586 0.1279328 0.1549008 -0.005328567 -0.08476499
0.13926677 0.05362976 0.03668965 -0.07234363 -0.21411344 0.0829049 0.06478525 -0.031815585
-0.12420772 -0.08586635 0.10847234 0.20286916 0.14515573 -0.0051023164 0.09142676 0.13570058
0.0012491023 -0.11427576 -0.078505576 -0.016860912 -0.020693213 0.0065978398 0.034081306 -0.033367533
0.0568853 -0.06401935 -0.060409807 0.07337341 0.031337984 0.18572757 -0.16693349 -0.061887793
0.08668795 0.098595 0.1241867 -0.07324084 -0.10552408 -0.1096938 -0.1197714 -0.07606719
-0.087716796 -0.17841928 -0.064336546 -0.09777689 -0.037402797 -0.06097439 -0.028816685 0.13153127
0.24361213 0.13486983 0.04235995 0.03118653 0.18930015 0.27231857 0.121444054 -0.19508095
-0.15079026 -0.15506491 -0.12422033 -0.010958785 -0.09645735 0.015199172 -0.03484186 -0.03945223
-0.06322067 -0.22966176 0.024238802 0.14431962 0.15843646 0.12530512 -0.09196699 -0.021683587
0.032904968 -0.059558943 -0.060800567 -0.20121497 0.03954601 0.0584046 -0.297659 -0.3096216
-0.09789957 0.27680224 0.23294823 -0.010533019 0.100222155 -0.030361202 0.09547382 0.17545672
0.104632124 0.09253584 -0.19896473 -0.12703227 0.032158513 -0.07390154 -0.035284635 -0.1253342
00000000: f810 193c c8f6 06be 5d85 99bd 581a f6bd
00000010: 6213 f6bd 2f26 143c c134 8d3d 80a1 2cbc
00000020: ff3b 04be 1ba7 06be 9e66 763c 2a29 bf3c
00000030: bb0b 093e 6d83 9dbd 2cdc 0cbe c8d7 473d
00000040: 493d 373d 17a7 723d fd06 893c 5df2 1f3c
00000050: 4ff8 573c 7179 b63d 8453 d43d 5b64 31bd
00000060: c288 b6bd fdab 9abd e324 a13d 77fd 3bbc
00000070: 3bb2 113e c603 9239 6636 d8bd f7af 0d3d
00000080: b467 203a 8d8c 093d 4bc4 ae3c 444c cdbd
00000090: 2f80 caba a236 cabd e867 383d dd64 623d
000000a0: 9308 9a3d 0b79 27be 0f89 13be ac30 1c3d
000000b0: 4fe2 b73d f101 d0bc 1ab8 bcbd 1221 edbc
000000c0: e90e debd df91 87bc 25ac ecbd a4f5 f4bd
000000d0: 7146 13bd c805 e63c 1184 873c 6d92 9dbd
000000e0: d4e1 5ebe f78f 3bbe be7b 6ebc a5bc 573e
000000f0: bdeb f13b 1b29 36be 175f 19be 9141 58bd
00000100: 6f5b fa3d 6c42 9ebc ca97 e33c 4dc0 12be
00000110: cd30 ddbd 2def c43d a07e d2bd 3da3 14be
00000120: 7c04 d3bd 903e 34bd bdd0 d93c 161f e43d
00000130: 2a13 203b 1568 a8bd d5fd 80bc cc19 29be
00000140: a86c 3f3d 35cf 063d 6b20 c33d 4b94 723d
00000150: 2894 4fbe 7c25 2f3d 50c3 193d 82dc 583e
00000160: 0fb0 3d3e 84ac 11bd 4c27 2abe 6997 debd
00000170: 7387 813e 9aa7 403e 208e a6bd 4a4f 37be
00000180: 98a2 263b 2376 e23d 0e7e 4b3d 68f9 81ba
00000190: e995 ba3c 0d9f bc3c 43a3 3a3c b3c1 89bd
000001a0: f737 93bd e1f9 123d 40e6 1cbe 4d58 08be
000001b0: 545c 0bbe ab9e 01be 1e4f 5c3e ffb5 0c3e
000001c0: 7bfe 88bd c12d 5bbe d2e7 1ebe 775a 403e
000001d0: 5897 6d3e c9c2 923d 5393 08be 3998 a8be
000001e0: cdff a0bd 6629 123e 3d50 b13d ce50 a6bc
000001f0: b65d 62be a680 cf3d 5de5 99bd 986f 0bbd
00000200: a678 0bbe 8761 2fbe 7461 8abd b606 a9bd
00000210: 0482 f5bc d44c 22bd ab0e 04be 6102 d83d
00000220: c85b ca3c fc56 c93c 5dcf e6bd 327c 23be
00000230: 4de8 25bd 4086 d93d 4ca0 113e 12f4 65bd
00000240: c62c 3abd 3cdf a7bb edc9 c03d 4851 ff3d
00000250: 892d 653c bfa1 1dbd 3115 d0bd d161 743d
00000260: b8e1 683c a007 b13d bf02 2c3e 8810 8a3c
00000270: d100 033e 519e 1e3e 429b aebb 4499 adbd
00000280: f39b 0e3e e1aa 5b3d e347 163d e628 94bd
00000290: 8e40 5bbe 0bca a93d 21ae 843d 0f51 02bd
000002a0: 9e60 febd b2da afbd bf26 de3d efbc 4f3e
000002b0: b4a3 143e 5531 a7bb f43d bb3d 18f5 0a3e
000002c0: ebb8 a33a 6909 eabd 88c7 a0bd e51f 8abc
000002d0: d084 a9bc b132 d83b d798 0b3d 65ac 08bd
000002e0: 8f00 693d 941c 83bd 4670 77bd cc44 963d
000002f0: 425c 003d 5e2f 3e3e 9df0 2abe 0e7e 7dbd
00000300: 7489 b13d 2dec c93d 9955 fe3d 4bff 95bd
00000310: 021d d8bd 25a7 e0bd b54a f5bd 1dc9 9bbd
00000320: dda4 b3bd 8bb3 36be e1c2 83bd 403f c8bd
00000330: ad33 19bd 48c0 79bd f810 ecbc 22b0 063e
00000340: 7575 793e 511b 0a3e a081 2d3d e57a ff3c
00000350: e6d7 413e 576d 8b3e a9b7 f83d 4dc3 47be
00000360: c368 1abe 56c9 1ebe 3a67 febd 7a8c 33bc
00000370: 6e8b c5bd f305 793c 57b6 0ebd a998 21bd
00000380: d779 81bd 742c 6bbe 7490 c63c 86c8 133e
00000390: 2b3d 223e fc4f 003e 3059 bcbd c7a1 b1bc
000003a0: 5cc7 063d 14f4 73bd 040a 79bd 4c0b 4ebe
000003b0: fffa 213d a939 6f3d c366 98be b986 9ebe
000003c0: 927f c8bd 06b9 8d3e fb89 6e3e af92 2cbc
000003d0: 4641 cd3d 0eb8 f8bc c787 c33d edaa 333e
000003e0: 5e49 d63d 6e83 bd3d 69bd 4bbe bf14 02be
000003f0: a5b8 033d b159 97bd 9f86 10bd 9c57 00be

conv2.bias f4 [16]
-0.08745557 0.06928156 0.07169912 0.034167517 -0.05641995 0.088659406 0.10183552 -0.10112678
-0.0871106 -0.09312356 -0.029655034 0.20545608 0.056236133 0.043938484 -0.0037635367 0.11648482
00000000: e81b b3bd 7ee3 8d3d fdd6 923d 3df3 0b3d
00000010: 9b18 67bd 1093 b53d 248f d03d 8f1b cfbd
00000020: 0b67 b2bd 91b7 bebd 1def f2bc 1463 523e
00000030: dc57 663d d7f8 333d aba5 76bb 988f ee3d

conv3.weight f4 [120, 16, 5, 5]
0.019548431 -0.05386434 0.04801596 0.06178472 0.10236641 -0.16999507 -0.18940641 0.016786775
0.04611341 0.06035183 -0.033053335 -0.11897617 -0.21994656 0.044317555 0.03843056 -0.018719472
0.0257579 0.034674086 0.05529667 0.047432464 0.05614371 0.11464746 0.113212086 0.015349716
-0.0006762255 0.009965919 -0.040717963 0.188622 0.07344653 -0.03411965 0.06415077 -0.046681937
-0.21478677 -0.1286063 0.046110656 0.11137681 0.2106729 0.07276072 0.10954688 -0.019951213
-0.05354617 0.032995634 0.0011178699 -0.005873422 -0.07918603 -0.0343591 -0.095678985 0.017344253
0.029450566 0.13110033 -0.08051735 -0.03915528 0.051039036 -0.086222656 -0.08273943 -0.0037335185
0.012594166 0.008965148 -0.093069814 0.055416763 -0.10041957 0.039475802 0.21811378 0.13596433
0.025076665 -0.12384349 -0.02924123 0.005322042 0.00022992006 -0.050466035 -0.029488537 0.004591595
-0.025337804 -0.008801132 -0.04169191 0.011625884 -0.016022582 -0.06653837 -0.12454871 -0.048280057
0.13173905 0.14117932 0.109512195 0.112835184 0.07113432 -0.08404738 0.012640622 0.19454555
-0.0065995175 0.008548824 -0.074956916 0.02910946 -0.07383032 -0.06109787 0.037730254 0.008340564
-0.09967223 -0.02030663 0.0018259485 0.20202166 0.031920597 0.13135338 0.11866955 -0.052867245
0.017629892 0.041495737 0.14931914 0.11975287 -0.002935633 0.027448714 0.06766928 0.0054265475
-0.003947087 0.037583657 0.044781476 0.06879047 -0.03997481 -0.092324115 -0.012914492 0.04095786
0.06061866 0.0092182895 -0.023673192 -0.049409643 -0.052719627 0.060028974 0.026336603 0.0030471182
-0.068461016 -0.11011104 0.20754243 0.22569239 0.09776316 -0.018485196 -0.07466122 -0.026852142
0.09482068 0.13937417 0.10084567 -0.01760177 0.01843583 -0.038202923 -0.16508211 -0.07252163
-0.001509963 -0.036612112 -0.07429392 -0.12158512 -0.040475726 0.072542265 0.12486498 0.050920453
0.034187403 -0.061355 -0.0066838195 -0.025715608 -0.01733951 0.02570639 0.11003003 0.0913225
-0.16219452 -0.13569455 -0.14421181 -0.07413097 -0.027107183 -0.024803184 -0.01327563 -0.08730081
-0.07393731 -0.029269248 0.13190293 0.04313891 0.10997756 -0.026153402 0.0633827 0.029907823
0.018844724 0.05234902 -0.005269653 0.045873553 0.11953597 0.050010093 -0.053943403 0.000308173
-0.015598305 0.15164448 0.07970326 0.0137999235 0.051406153 0.05722782 -0.026199657 -0.030537099
0.11456259 0.006751176 -0.068951935 -0.06956974 -0.04230679 0.023766637 -0.021241914 0.06109386
-0.00043308878 -0.0380455 0.050053503 0.060680818 -0.042336177 0.050454754 0.011094584 -0.03419286
0.045694556 0.074285515 0.09445755 0.0995822 0.05656843 0.017934669 -0.031094354 0.03409271
0.110945314 0.07310467 -0.043218836 -0.06715136 -0.051064614 0.010291959 0.039516926 0.020376379
0.084388345 -0.020575803 0.008655123 -0.04163806 0.0940203 0.0755 -0.08229905 -0.046221092
0.02102607 0.0013619998 -0.020464309 0.02829043 -0.0461763 -0.05594727 -0.16390176 -0.08846428
0.123372965 0.05555553 0.018441781 -0.004301203 0.034769718 -0.06960194 0.06274859 -0.052195773
0.027665429 -0.030149072 0.0023876792 -0.026278244 0.03804784 -0.016252466 0.01857835 -0.18404639
00000000: 0824 a03c dba0 5cbd 62ac 443d f911 7d3d
00000010: 7ba5 d13d 3013 2ebe c1f3 41be 6b84 893c
00000020: 6ae1 3c3d 7b33 773d ef62 07bd c7a9 f3bd
00000030: ac39 61be 5386 353d 5d69 1d3d 9459 99bc
00000040: 3b02 d33c 6a06 0e3d c37e 623d 8b48 423d
00000050: f2f6 653d 4acc ea3d bddb e73d 607d 7b3c
00000060: ba44 31ba 1848 233c e1c7 26bd 2026 413e
00000070: 226b 963d 0cc1 0bbd 7b61 833d 8f35 3fbd
00000080: 10f1 5bbe 5fb1 03be 87de 3c3d 8619 e43d
00000090: a3ba 573e 9303 953d 1d5a e03d ba70 a3bc
000000a0: 3b53 5bbd 6e26 073d 7d85 923a d675 c0bb
000000b0: 492c a2bd 21bc 0cbd 58f3 c3bd 8915 8e3c
000000c0: 5042 f13c 2a3f 063e 48e6 a4bd 4961 20bd
000000d0: 4f0e 513d 8195 b0bd 4a73 a9bd 0cae 74bb
000000e0: c357 4e3c 8ee2 123c 639b bebd b0fc 623d
000000f0: c7a8 cdbd 61b1 213d 3859 5f3e 3c3a 0b3e
00000100: 946d cd3c a8a1 fdbd 4e8b efbc 8664 ae3b
00000110: b216 7139 79b5 4ebd f291 f1bc 1775 963b
00000120: 3a91 cfbc a032 10bc 23c5 2abd 7e7a 3e3c
00000130: ca41 83bc 4545 88bd 6513 ffbd 4fc1 45bd
00000140: 9ae6 063e 5091 103e ee47 e03d 2216 e73d
00000150: dfae 913d 0821 acbd 9d1a 4f3c f336 473e
00000160: c440 d8bb 5e10 0c3c 0383 99bd f676 ee3c
00000170: 5a34 97bd c341 7abd 0a8b 1a3d dca6 083c
00000180: f420 ccbd 175a a6bc aa54 ef3a c4de 4e3e
00000190: 2cbf 023d 8081 063e 0509 f33d 538b 58bd
000001a0: 906c 903c 6ff7 293d 1ee7 183e fe40 f53d
000001b0: c063 40bb 20dc e03c 3196 8a3d 2ed1 b13b
000001c0: 9156 81bb 52f1 193d c86c 373d 05e2 8c3d
000001d0: a0bc 23bd 6d14 bdbd 4e97 53bc 6ec3 273d
000001e0: 464b 783d 4f08 173c 48ee c1bc c461 4abd
000001f0: 89f0 57bd f1e0 753d dcbf d73c 29b2 473b
00000200: 4a35 8cbd e681 e1bd 0186 543e e81b 673e
00000210: 0d38 c83d 446e 97bc fbe7 98bd 06f9 dbbc
00000220: 5831 c23d 1ab8 0e3e 2d88 ce3d 9631 90bc
00000230: bd06 973c ab7a 1cbd 490b 29be 3886 94bd
00000240: f3e9 c5ba 95f6 15bd 6927 98bd 9f01 f9bd
00000250: e0c9 25bd 0a91 943d 36b9 ff3d f791 503d
00000260: 1708 0c3d 614f 7bbd f103 dbbb 8aa9 d2bc
00000270: 970b 8ebc 3596 d23c 6d57 e13d 4a07 bb3d
00000280: 5216 26be 83f3 0abe 43ac 13be fad1 97bd
00000290: e20f debc 0c30 cbbc 0782 59bc c4ca b2bd
000002a0: 726c 97bd 10c6 efbc 9011 073e 6db2 303d
000002b0: ea3b e13d a93f d6bc cace 813d 4001 f53c
000002c0: 4060 9a3c ed6b 563d 0ead acbb e8e5 3b3d
000002d0: 46cf f43d 62d7 4c3d c2f3 5cbd 4892 a139
000002e0: 0890 7fbc b148 1b3e 763b a33d 1319 623c
000002f0: 428f 523d b867 6a3d aaa0 d6bc f028 fabc
00000300: cb9f ea3d f838 dd3b ac36 8dbd 947a 8ebd
00000310: e249 2dbd 40b2 c23c 8603 aebc 8e3d 7a3d
00000320: 3110 e3b9 99d5 1bbd e704 4d3d 738c 783d
00000330: b368 2dbd a5a9 4e3d 0fc6 353c d00d 0cbd
00000340: 372a 3b3d 0123 983d f672 c13d c1f1 cb3d
00000350: 4cb4 673d baeb 923c 96b9 febc cca4 0b3d
00000360: 4c37 e33d e7b7 953d 3c06 31bd a786 89bd
00000370: 2129 51bd 9b9f 283c 80dc 213d 5dec a63c
00000380: ccd3 ac3d 968e a8bc 38ce 0d3c ac8c 2abd
00000390: b78d c03d be9f 9a3d 688c a8bd 5452 3dbd
000003a0: dd3e ac3c 2185 b23a c4a4 a7bc 55c1 e73c
000003b0: 5c23 3dbd f728 65bd ddd5 27be c32c b5bd
000003c0: f7aa fc3d 328e 633d 3813 973c 1bf1 8cbb
000003d0: b16a 0e3d 768b 8ebd 5582 803d 3ccb 55bd
000003e0: 9ca2 e23c 30fb f6bc 9c7a 1c3b 7945 d7bc
000003f0: 0dd8 1b3d e423 85bc a031 983c a876 3cbe

conv3.bias f4 [120]
-0.12807418 0.007328806 0.0015336049 -0.072685376 -0.08148473 -0.03055905 0.054558527 -0.15232958
0.048961204 0.06903338 -0.0033527757 0.08635312 0.057137653 -0.05066871 -0.09847294 0.076584764
0.059719916 0.049283106 0.039469745 0.0075478214 -0.038444944 0.024173578 0.009423784 -0.014013665
-0.02500013 -0.0015838197 0.021776032 0.11811558 -0.03170971 0.03866151 -0.046281543 -0.047564533
0.067262426 -0.11279668 0.0006723415 0.0010134039 -0.03269485 -0.008448322 0.039868865 -0.024976052
-0.10464482 0.017949823 -0.060079522 -0.09840333 0.045211405 0.031004399 0.076904185 0.0838862
-0.06837861 -0.12483446 0.042594705 -0.017041823 0.046347 -0.030316828 0.058673467 -0.0091977855
-0.005044885 0.09038691 0.023031205 0.05764606 -0.009077078 0.010941142 -0.08395861 -0.12376331
0.078544274 0.020102357 -0.0118762385 0.06069327 -0.023945939 -0.013457548 0.08364269 0.032130226
-0.09548161 0.11125342 0.021945361 0.075053036 0.045556407 -0.030780118 -0.0702683 0.023908583
-0.030906916 -0.041616425 0.078118235 -0.07154048 0.08277113 0.00954716 0.11450371 0.05727359
-0.052126862 -0.028593212 0.08623649 -0.011473331 -0.045955155 0.08630554 -0.04307877 -0.0048470125
0.051155105 -0.039459217 -0.050692923 0.035329945 -0.03997376 0.048648104 -0.03876337 0.050772995
0.00022128093 -0.047927577 0.030224545 -0.030808825 -0.10063982 -0.0013921595 0.034169678 0.1104412
-0.05373368 0.031465787 -0.0773688 0.020843646 -0.0026343397 -0.022656705 -0.006080446 -0.015045813
00000000: e125 03be 7b26 f03b 3e03 c93a 12dc 94bd
00000010: 77e1 a6bd f956 fabc c378 5f3d 49fc 1bbe
00000020: 8b8b 483d 5f61 8d3d 3eba 5bbb e8d9 b03d
00000030: 2c09 6a3d fe89 4fbd 2eac c9bd 79d8 9c3d
00000040: df9c 743d 15dd 493d 07ab 213d b753 f73b
00000050: 7278 1dbd ab07 c63c 3766 1a3c 9299 65bc
00000060: 13cd ccbc 2c98 cfba a663 b23c 95e6 f13d
00000070: 0ae2 01bd 885b 1e3d b791 3dbd 07d3 42bd
00000080: e2c0 893d f201 e7bd 1340 303a 31d4 843a
00000090: 09eb 05bd d56a 0abc 894d 233d 949a ccbc
000000a0: 0650 d6bd 820b 933c f215 76bd af87 c9bd
000000b0: 982f 393d f0fc fd3c f17f 9d3d 87cc ab3d
000000c0: 160a 8cbd 36a9 ffbd c977 2e3d 4b9b 8bbc
000000d0: 5ad6 3d3d ff5a f8bc 9753 703d 4fb2 16bc
000000e0: 904f a5bb c61c b93d f0ab bc3c 461e 6c3d
000000f0: 06b8 14bc 7a42 333c 7ef2 abbd 9e77 fdbd
00000100: d2db a03d b3ad a43c 8e94 42bc 8299 783d
00000110: 462a c4bc 0c7d 5cbc dc4c ab3d fc9a 033d
00000120: dd8b c3bd d5d8 e33d c2c6 b33c 68b5 993d
00000130: 5b99 3a3d 9626 fcbc d4e8 8fbd efdb c33c
00000140: 8030 fdbc fc75 2abd 74fc 9f3d d183 92bd
00000150: e983 a93d b16b 1c3c ec80 ea3d b697 6a3d
00000160: fa82 55bd 503c eabc c29c b03d a3fa 3bbc
00000170: 793b 3cbd f5c0 b03d 5d73 30bd b0d3 9ebb
00000180: 0488 513d fd9f 21bd 62a3 4fbd 22b6 103d
00000190: 86bb 23bd 3c43 473d 57c6 1ebd 58f7 4f3d
000001a0: a607 6839 b54f 44bd 7799 f73c ca62 fcbc
000001b0: 401c cebd 1f79 b6ba 81f5 0b3d ff2e e23d
000001c0: d917 5cbd 45e2 003d 8973 9ebd 4bc0 aa3c
000001d0: e3a4 2cbb 8e9a b9bc 7a3e c7bb b782 76bc

linear1.weight f4 [84, 120]
-0.09145354 0.009459528 -0.019629875 -0.07823656 0.13161777 -0.0868509 0.05496221 -0.15739138
-0.04089612 -0.055539902 -0.16585179 -0.035024565 -0.027813906 0.075018354 -0.2032048 0.15004505
-0.014853993 -0.12206839 0.041725032 0.050462592 -0.03959283 -0.1557101 0.2493294 -0.02442651
-0.2347232 0.040081706 0.1366816 -0.011052993 -0.042850237 -0.09950259 0.058137752 -0.03953162
-0.039628785 0.084942795 -0.040151548 0.012098781 0.10051755 0.034235317 -0.18849516 -0.054161
0.081289224 -0.016137166 -0.04188462 -0.12899552 0.12224475 -0.040881507 0.14200467 0.18593313
0.05601657 -0.025459195 -0.08016863 0.020652214 0.028040893 0.047195334 0.005004382 -0.096626826
0.09868515 -0.046143375 -0.1745249 -0.19277199 0.12028612 -0.044215556 0.058393918 0.07520146
0.23442861 -0.018640991 -0.06337354 0.068026856 0.043821923 0.013313626 -0.10603783 -0.012428395
0.07102137 -0.07210758 -0.056547448 -0.044219397 0.07676362 -0.15957384 0.14347251 -0.028144531
0.012172525 0.098342165 0.07667536 -0.012468047 0.06294838 -0.045217413 -0.062154036 0.109769925
-0.05934263 -0.074984066 -0.1980375 -0.19762546 0.034307435 -0.07644785 0.052639663 0.021006413
-0.06959904 -0.010317914 0.019738728 0.019925363 -0.09975895 -0.049070027 0.08768634 -0.07722187
-0.09571128 -0.004183197 -0.043326892 0.017891232 -0.07526566 -0.038376607 0.0878899 0.19680999
-0.088789925 -0.07151371 0.05599024 0.049338996 0.13839495 0.11063809 0.03982065 0.041113216
0.025755579 0.006983745 -0.1543964 0.12277853 0.23580627 -0.10735869 -0.095565505 -0.025190722
-0.077134125 -0.10836145 -0.18695793 -0.04376365 -0.15748206 0.17390847 0.03378478 0.15510403
-0.008550371 -0.19479181 -0.098447405 0.008061656 -0.053577617 0.0921272 -0.01180572 0.07048449
-0.122361496 0.0583901 0.08988219 -0.124492854 0.03957095 -0.08506237 -0.03020102 -0.12660271
-0.17402455 0.14591175 -0.014299025 0.08712577 0.1361329 0.008478906 -0.096423455 -0.08969393
0.10340647 -0.1108689 -0.18051323 -0.0631875 0.04995615 0.014995331 -0.06948493 -0.17968725
0.094410725 -0.047100607 -0.14320827 0.07250937 -0.13832529 0.07965367 0.056949914 -0.0033765538
-0.022421276 -0.0081095705 0.09636811 0.12642331 -0.010108665 -0.01945006 0.08795089 -0.007046447
-0.092190936 -0.10211586 0.10061404 -0.0032324477 0.18287879 -0.08675895 -0.2210376 -0.14851156
0.2410656 0.017833482 -0.21178716 -0.116024934 -0.15163028 0.08224422 0.09634853 -0.08914148
0.019557912 0.035565577 -0.21679024 -0.04182894 -0.09364225 0.042990573 -0.011634128 -0.0052648257
-0.03532885 0.020088417 0.060551714 -0.0031761823 0.057660047 -0.12932219 0.01308594 -0.14094336
0.15125196 0.117610216 0.13440189 0.09457747 0.011289257 0.0053987987 -0.20623964 -0.03259002
0.043613162 -0.03438944 -0.069170564 0.03791584 0.07913332 0.081123434 -0.025231833 -0.18358512
0.24871184 -0.14464064 0.12942632 -0.005180815 -0.069622345 0.07591175 0.06068961 -0.16388242
-0.09854918 0.007924903 -0.1768781 -0.0026451107 0.1613128 -0.032492723 0.05882628 0.0007588653
-0.105554156 -0.03974872 -0.14742953 -0.031333968 0.08257022 -0.01993656 -0.0088678645 -0.024347773
00000000: fe4b bbbd 23fc 1a3c d5ce a0bc 7d3a a0bd
00000010: cfc6 063e e2de b1bd 0e20 613d 352b 21be
00000020: b182 27bd cf7d 63bd 0dd5 29be eb75 0fbd
00000030: fdd9 e3bc 39a3 993d eb14 50be 69a5 193e
00000040: 2a5e 73bc fefe f9bd dee7 2a3d ddb1 4e3d
00000050: 172c 22bd 7872 1fbe 3550 7f3e 1b1a c8bc
00000060: 475b 70be b72c 243d 43f6 0b3e 9d17 35bc
00000070: bb83 2fbd 04c8 cbbd da21 6e3d e8eb 21bd
00000080: cb51 22bd 7df6 ad3d f375 24bd f739 463c
00000090: 25dc cd3d 553a 0c3d e004 41be edd7 5dbd
000000a0: f77a a63d 1732 84bc 358f 2bbd 6717 04be
000000b0: 755b fa3d 5e73 27bd ac69 113e 4165 3e3e
000000c0: a271 653d cd8f d0bc 732f a4bd d52e a93c
000000d0: 04b6 e53c e54f 413d cdfb a33b 49e4 c5bd
000000e0: 711b ca3d d600 3dbd a8b6 32be 0566 45be
000000f0: 9258 f63d 5f1b 35bd 762e 6f3d 3903 9a3d
00000100: 0e0e 703e feb4 98bc fdc9 81bd aa51 8b3d
00000110: 9e7e 333d 6521 5a3c 5d2a d9bd 78a0 4bbc
00000120: a773 913d 24ad 93bd 4c9e 67bd 661f 35bd
00000130: 3f36 9d3d 5367 23be 75ea 123e 5c8f e6bc
00000140: 456f 473c 9e67 c93d f907 9d3d c846 4cbc
00000150: 15eb 803d e535 39bd 3b95 7ebd 0ecf e03d
00000160: 4211 73bd 3f91 99bd 58ca 4abe 545e 4abe
00000170: f485 0c3d b190 9cbd b09c 573d a415 ac3c
00000180: f189 8ebd 780c 29bc 1db3 a13c 843a a33c
00000190: 6c4e ccbd a7fd 48bd e594 b33d 8026 9ebd
000001a0: 4704 c4bd 3313 89bb 8a77 31bd a290 923c
000001b0: e224 9abd ca30 1dbd 9fff b33d 8f88 493e
000001c0: 7ed7 b5bd c875 92bd 0656 653d b017 4a3d
000001d0: 68b7 0d3e 3996 e23d fa1a 233d 5566 283d
000001e0: 5dfd d23c e6d7 e43b 171a 1ebe 4f73 fb3d
000001f0: 3377 713e dfde dbbd d9b7 c3bd c65c cebc
00000200: 7ff8 9dbd 9cec ddbd e671 3fbe 8341 33bd
00000210: fa42 21be 1015 323e e961 0a3d 97d3 1e3e
00000220: db16 0cbc 8177 47be cb9e c9bd 0915 043c
00000230: 3474 5bbd 2fad bc3d c76c 41bc 2c5a 903d
00000240: aa98 fabd 752a 6f3d 2714 b83d 1cf6 febd
00000250: 2615 223d 2e35 aebd 2168 f7bc 24a4 01be
00000260: 7e33 32be e469 153e 7546 6abc ff6e b23d
00000270: 6c66 0b3e 1ceb 0a3c a979 c5bd 73b1 b7bd
00000280: c5c6 d33d 3c0f e3bd 76d8 38be 7368 81bd
00000290: d29e 4c3d faae 753c 1d4e 8ebd efff 37be
000002a0: 695a c13d 91ec 40bd 30a5 12be cb7f 943d
000002b0: 25a5 0dbe 7721 a33d 5044 693d 2c49 5dbb
000002c0: d3ac b7bc 01de 04bc a55c c53d 1d75 013e
000002d0: d09e 25bc bb55 9fbc 991f b43d e2e5 e6bb
000002e0: 9ace bcbd 1f22 d1bd bc0e ce3d 79d7 53bb
000002f0: 9444 3b3e adae b1bd ae57 62be 6a13 18be
00000300: e7d9 763e 8617 923c bcde 58be 7b9e edbd
00000310: f844 1bbe a86f a83d 6152 c53d cf8f b6bd
00000320: ea37 a03c 36ad 113d 43fe 5dbe d354 2bbd
00000330: 82c7 bfbd e216 303d 129d 3ebc 8f84 acbb
00000340: fcb4 10bd 7790 a43c 1305 783d 7f27 50bb
00000350: f12c 6c3d 096d 04be 6966 563c 7553 10be
00000360: cbe1 1a3e a0dd f03d a6a0 093e d5b1 c13d
00000370: 93f6 383c 68e8 b03b 7c30 53be 1d7d 05bd
00000380: b7a3 323d f1db 0cbd 4ca9 8dbd a44d 1b3d
00000390: a610 a23d 0b24 a63d fdb2 cebc bdfd 3bbe
000003a0: 51ae 7e3e ad1c 14be 5588 043e d3c3 a9bb
000003b0: 2996 8ebd 9f77 9b3d ab95 783d cbd0 27be
000003c0: 27d4 c9bd 74d7 013c 881f 35be 9859 2dbb
000003d0: 2f2f 253e 1717 05bd d3f3 703d 97ee 463a
000003e0: c72c d8bd 8ecf 22bd c4f7 16be 0c58 00bd
000003f0: 931a a93d ff51 a3bc 854a 11bc fb74 c7bc

linear1.bias f4 [84]
-0.032537334 -0.07870859 0.019076103 0.11967302 0.01964522 -0.13529679 -0.04349897 -0.06686305
0.07102993 -0.040449057 0.07685416 -0.14936681 -0.094452485 0.06891486 -0.064659126 0.085947014
0.14221087 -0.040612347 -0.028867602 -0.04316754 -0.020508388 0.081891425 0.09635547 -0.06519371
-0.041338857 -0.07470531 -0.11690084 -0.14209002 -0.020279804 0.03116464 -0.0018312722 0.033749618
0.017307468 -0.0024338618 0.1726156 0.00889734 0.08311413 0.11298385 0.08815278 0.037541185
0.09648972 -0.05848728 0.06494949 0.076824345 -0.027864594 0.018336868 -0.0530074 -0.0666713
0.09967681 -0.06165942 0.027901838 -0.008322164 0.015048128 0.023865437 0.09852366 -0.037942268
-0.12112719 0.030272339 -0.0301413 -0.020009661 0.01878329 -0.046123277 0.12837444 -0.0006037402
-0.0797932 -0.0119886575 -0.18194456 -0.13584179 -0.08139287 0.1478152 -0.080643035 -0.0693944
-0.081645034 -0.025520625 -0.0818507 -0.011652094 0.0016573567 0.04729447 0.11926901 0.13195023
0.04506707 0.069008574 -0.047704287 -0.019632231
00000000: de45 05bd f831 a1bd 7d45 9c3c 2117 f53d
00000010: 03ef a03c 3e8b 0abe fa2b 32bd 7fef 88bd
00000020: 2478 913d e9ad 25bd b765 9d3d 9df3 18be
00000030: 4e70 c1bd 3c23 8d3d 016c 84bd fd04 b03d
00000040: ba9f 113e 2259 26bd c07b ecbc 72d0 30bd
00000050: 3501 a8bc b1b6 a73d 0456 c53d 4884 85bd
00000060: ef52 29bd 19ff 98bd b569 efbd 0c80 11be
00000070: d521 a6bc fd4c ff3c 4c07 f0ba 0a3d 0a3d
00000080: 64c8 8d3c 6d81 1fbb 25c2 303e 26c6 113c
00000090: be37 aa3d 1464 e73d 7289 b43d c9c4 193d
000000a0: 679c c53d 5c90 6fbd 3d04 853d 1556 9d3d
000000b0: 4a44 e4bc 3337 963c 4a1e 59bd f68a 88bd
000000c0: 5b23 cc3d 978e 7cbd 6592 e43c b059 08bc
000000d0: 6c8c 763c 7381 c33c c6c6 c93d 5a69 1bbd
000000e0: 8811 f8bd b2fd f73c e3ea f6bc 4deb a3bc
000000f0: 6adf 993c c3eb 3cbd 9774 033e 5244 1eba
00000100: 9e6a a3bd 136c 44bc ad4f 3abe 1c1a 0bbe
00000110: 4eb1 a6bd de5c 173e 2d28 a5bd a71e 8ebd
00000120: 8335 a7bd a110 d1bc 57a1 a7bd 6de8 3ebc
00000130: aa3b d93a d9b7 413d 5043 f43d f61d 073e
00000140: 3f98 383d 5e54 8d3d 9265 43bd c6d3 a0bc

linear2.weight f4 [10, 84]
-0.16863702 0.082853116 -0.118907206 -0.11687425 -0.30414453 -0.07566601 -0.002046503 0.31018755
-0.25502896 0.13428691 0.048920542 0.25899124 0.25538558 -0.039659467 0.029217647 0.2859058
0.083519146 -0.08268398 -0.04401537 -0.11943279 -0.102717094 -0.044468217 -0.13199687 -0.13595179
0.33164316 -0.009762378 -0.17431606 -0.09175567 0.23091328 -0.035618916 0.14161381 0.28860262
-0.20810029 0.17982198 -0.082893685 0.09359203 0.2703823 0.160386 0.23608543 -0.31658033
-0.2648653 0.07770677 0.274985 -0.39098814 0.21803541 -0.09286065 0.05671803 -0.2163223
-0.16215207 -0.063687414 0.07797543 -0.23033093 0.1438054 -0.29053494 0.021138875 0.21868432
0.15864365 -0.16517231 0.21991113 0.26043782 -0.0907487 0.017388681 0.31785718 -0.23609625
0.14599638 -0.18926685 -0.19903393 0.29541093 0.35830325 -0.15871952 0.09271182 0.059161425
-0.1126524 -0.19680902 0.22546594 0.22097664 0.17579384 0.08329832 -0.18043599 -0.20547666
-0.15013386 -0.3024886 -0.1855211 0.28104767 -0.0319559 0.36023673 0.36544555 0.2677456
-0.032105315 0.04311494 0.30357265 -0.20507993 0.12970935 -0.2847474 0.09225396 -0.17898174
-0.21748501 0.12297158 -0.23911397 0.12210127 0.06324458 -0.20252968 0.12293963 -0.2717677
0.37036204 0.23157254 0.2178549 0.010522747 -0.022990707 0.11681245 -0.20086168 -0.2767847
0.028774403 0.33064413 0.17856325 0.33347753 -0.16766232 -0.06040316 0.18987416 -0.18499559
-0.12519829 0.054771192 -0.21224794 0.17487527 0.17639232 -0.13503522 0.06474037 -0.075515874
-0.14802843 0.14080733 -0.06026664 0.03442893 0.20662305 0.05321377 -0.28865483 0.1262551
-0.15661214 0.019212674 0.27138364 -0.2445919 -0.17379302 0.05727743 -5.9959646e-05 -0.13477436
0.10067858 -0.1388652 -0.058246393 0.11280647 0.28665218 0.14302403 0.02463627 -0.18196039
-0.113337666 0.27286687 -0.13943969 -0.28274533 -0.38163173 0.20514992 -0.17860979 0.18639895
0.35122535 0.2397673 -0.05769742 0.1570274 0.19729403 0.18411902 0.07056348 0.08602167
-0.1638886 -0.2108299 0.14737625 -0.015785735 0.20686172 -0.08684628 0.31384027 0.094534025
0.12940921 0.11977644 0.08982114 0.21302414 -0.11166235 0.031919476 0.22141783 -0.29565126
0.07021522 -0.033619378 -0.19330221 0.30528098 0.04993502 0.16445312 0.12707998 -0.18202896
-0.03907084 0.18196279 -0.13867362 -0.2744729 -0.027139885 0.0827015 -0.090709835 -0.287769
-0.0893521 0.00029408597 -0.03065444 0.27667043 0.21657471 -0.03838266 0.20443833 0.31934178
0.10447487 -0.06565721 0.24169487 -0.041721933 0.16475113 -0.047260303 -0.17933388 -0.1187993
0.22502172 -0.16587499 -0.18273357 -0.021043723 -0.1379241 -0.20430303 -0.24518417 -0.15229906
-0.20175198 0.05376603 -0.05806258 -0.18718311 -0.03906404 -0.13917753 0.004834935 -0.33896923
-0.06312313 0.12027516 -0.41583502 -0.24227872 0.20860358 -0.09862362 -0.23180902 -0.056243453
0.24805014 -0.2841162 0.040479813 -0.2768375 -0.2447556 0.14954375 0.34356746 0.20436472
-0.3554375 -0.2388357 0.29007217 0.19398834 0.25601858 -0.16621594 -0.22925638 0.2183718
00000000: 2faf 2cbe e5ae a93d 9f85 f3bd c45b efbd
00000010: d5b8 9bbe c8f6 9abd 9f1e 06bb e7d0 9e3e
00000020: 2893 82be 8282 093e e860 483d 809a 843e
00000030: e6c1 823e f771 22bd d959 ef3c 3f62 923e
00000040: 160c ab3d 3856 a9bd 7649 34bd 2e99 f4bd
00000050: 575d d2bd 4e24 36bd 302a 07be f236 0bbe
00000060: 22cd a93e 62f2 1fbc e97f 32be 66ea bbbd
00000070: 8874 6c3e 24e5 11bd 3603 113e b9c3 933e
00000080: 3e18 55be 4123 383e 2ac4 a9bd 2ead bf3d
00000090: 8c6f 8a3e 3a3c 243e 61c0 713e d116 a2be
000000a0: 6d9c 87be ba24 9f3d d5ca 8c3e 992f c8be
000000b0: ad44 5f3e b92d bebd 2a51 683d 9883 5dbe
000000c0: 310b 26be 8c6e 82bd 95b1 9f3d dfdb 6bbe
000000d0: b941 133e ffc0 94be 6f2b ad3c c8ee 5f3e
000000e0: 7b73 223e ee22 29be 6230 613e 1b58 853e
000000f0: 74da b9bd b572 8e3c 2dbe a23e 37c3 71be
00000100: 1380 153e 2bcf 41be 8dcf 4bbe 1a40 973e
00000110: 8673 b73e 5f87 22be b2df bd3d 4053 723d
00000120: 4db6 e6bd 4e88 49be 8be0 663e b347 623e
00000130: 4d03 343e 4f98 aa3d 36c4 38be 7968 52be
00000140: b1bc 19be c9df 9abe 3ef9 3dbe 7be5 8f3e
00000150: 31e4 02bd f370 b83e ae1b bb3e f415 893e
00000160: dd80 03bd 4b99 303d e06d 9b3e 7900 52be
00000170: 87d2 043e 69ca 91be a5ef bc3d fd46 37be
00000180: 64b4 5ebe 86d8 fb3d 4bda 74be 3b10 fa3d
00000190: 6086 813d f163 4fbe c6c7 fb3d 2325 8bbe
000001a0: 18a0 bd3e 5a21 6d3e 5b15 5f3e 9a67 2c3c
000001b0: 0257 bcbc 5e3b ef3d afae 4dbe b9b6 8dbe
000001c0: 4cb8 eb3c 304a a93e 49d9 363e 91bd aa3e
000001d0: acaf 2bbe 4e69 77bd 5f6e 423e 7c6f 3dbe
000001e0: fb33 00be c257 603d 8657 59be 8112 333e
000001f0: 30a0 343e ac46 0abe 9996 843d 11a8 9abd
00000200: c494 17be cc2f 103e 27da 76bd 5a05 0d3d
00000210: fe94 533e aff6 593d 91ca 93be 0449 013e
00000220: ef5e 20be e663 9d3c ccf2 8a3e 4d76 7abe
00000230: ccf6 31be bd9b 6a3d 2e7d 7bb8 4a02 0abe
00000240: 9230 ce3d ae32 0ebe c593 6ebd 1407 e73d
00000250: 13c4 923e e474 123e 01d2 c93c d353 3abe
00000260: 941d e8bd 35b5 8b3e 47c9 0ebe ffc3 90be
00000270: 3c65 c3be d212 523e 7ce5 36be 5edf 3e3e
00000280: cfd3 b33e 8f85 753e 2154 6cbd cacb 203e
00000290: 7207 4a3e b289 3c3e 9683 903d 212c b03d
000002a0: 6ad2 27be cbe3 57be cde9 163e 1651 81bc
000002b0: 8fd3 533e 76dc b1bd acaf a03e 0e9b c13d
000002c0: d983 043e 5a4d f53d 25f4 b73d 0023 5a3e
000002d0: 3baf e4bd ffbd 023d 5bbb 623e 9a5f 97be
000002e0: ffcc 8f3d 79b4 09bd 04f1 45be ca4d 9c3e
000002f0: aa88 4c3d 6666 283e 4121 023e cd65 3abe
00000300: bf08 20bd 7454 3a3e 7500 0ebe b687 8cbe
00000310: 7754 debc 675f a93d 14c6 b9bd 7556 93be
00000320: 3cfe b6bd 8d2f 9a39 051f fbbc bfa7 8d3e
00000330: c3c5 5d3e 2337 1dbd 4858 513e c480 a33e
00000340: ecf6 d53d 4a77 86bd dc7e 773e 9ee4 2abd
00000350: 85b4 283e 0594 41bd 4da3 37be 0c4d f3bd
00000360: 186c 663e 22db 29be 821e 3bbe e363 acbc
00000370: fa3b 0dbe d034 51be 8f11 7bbe 49f4 1bbe
00000380: 1298 4ebe c539 5c3d 07d3 6dbd eeac 3fbe
00000390: 9d01 20bd 8e84 0ebe 606e 9e3b 608d adbe
000003a0: b346 81bd d352 f63d 54e8 d4be ea17 78be
000003b0: 2d9c 553e 2efb c9bd 585f 6dbe 895f 66bd
000003c0: db00 7e3e ae77 91be 29ce 253d a5bd 8dbe
000003d0: 36a1 7abe ff21 193e 13e8 af3e fc44 513e
000003e0: e7fb b5be 5991 74be 5784 943e e1a4 463e
000003f0: de14 833e 8334 2abe 2fc2 6abe db9c 5f3e

linear2.bias f4 [10]
-0.007623695 -0.06501884 0.22725858 0.06565784 0.038099702 0.045110997 -0.02844358 -0.053649623
-0.123111375 -0.028932562
00000000: 30d0 f9bb 9928 85bd 79b6 683e 9e77 863d
00000010: 6f0e 1c3d 4fc6 383d 8302 e9bc b5bf 5bbd
00000020: d121 fcbd fb03 edbc
